outputs/racenet_21_09_27.pt (torch, 851634 bytes, 17 tensors)

batch_norms.0.weight f4 [256]
000000 67 da 57 3f 7d 17 52 3f e0 71 68 3f 2e 2e 4a 3f
       0.8431763 0.8206709 0.9079876 0.78976715
000010 52 d9 52 3f fe b8 87 3f ae 26 6c 3f 9f 48 62 3f
       0.82362854 1.060333 0.9224652 0.8839206
000020 7b 47 8b 3f 25 9b 86 3f d3 9c 5f 3f a2 c1 4b 3f
       1.0881189 1.0516096 0.8734867 0.79592335
000030 ba 8a 53 3f 85 cc 9c 3f 16 d0 8a 3f 55 f7 58 3f
       0.82633555 1.2249914 1.0844753 0.847524
000040 a5 27 76 3f b1 c8 61 3f 07 4a 82 3f 97 2b 7f 3f
       0.9615424 0.88196856 1.0178841 0.9967589
000050 6c 02 17 3f 4b e8 7e 3f 26 47 57 3f 64 07 5c 3f
       0.5898807 0.995732 0.8409294 0.8594878
000060 43 ad 7e 3f 24 72 53 3f e7 5b 83 3f 56 18 82 3f
       0.99483126 0.8259604 1.0262421 1.0163677
000070 bf c1 7b 3f 8b ae 87 3f 01 f7 88 3f c6 9a 72 3f
       0.9834251 1.0600141 1.070038 0.94767416
000080 d8 d4 85 3f eb 1d 5e 3f 85 17 7c 3f 0b ff 7e 3f
       1.045558 0.867644 0.9847339 0.99607915
000090 0a bc 4d 3f 6e d5 77 3f c1 e5 6f 3f 00 a9 55 3f
       0.8036505 0.9681004 0.9370995 0.83461
0000a0 be af 80 3f a4 a2 64 3f ad 20 7d 3f 02 52 46 3f
       1.0053632 0.8931067 0.98877984 0.77468884
0000b0 48 6f 86 3f d2 d6 81 3f 08 01 61 3f 51 68 54 3f
       1.050271 1.0143683 0.878922 0.82971674
0000c0 a2 1d 88 3f b9 63 65 3f 0b 5a 61 3f 8f a6 89 3f
       1.0634043 0.8960529 0.8802802 1.0753955
0000d0 cf 8d 48 3f 75 8f 69 3f 2e d2 81 3f 42 37 37 3f
       0.7834138 0.91234523 1.0142267 0.7156869
0000e0 0a 3b 63 3f db cc 88 3f 7f ef 79 3f ff 52 61 3f
       0.8876196 1.0687517 0.9763107 0.88017267
0000f0 33 b3 7a 3f 75 82 98 3f 20 29 47 3f 0c ef 7d 3f
       0.97929686 1.1914812 0.77797127 0.9919288
000100 de 20 6e 3f a5 6a 71 3f a3 ab 7b 3f 1f f6 8e 3f
       0.930189 0.9430335 0.9830877 1.116886
000110 9c c1 5c 3f 99 9e 85 3f 9d 6d 68 3f a8 fa 58 3f
       0.86232924 1.0439025 0.90792257 0.8475747
000120 78 cc 48 3f 39 4c 56 3f 09 49 73 3f ad f7 58 3f
       0.78436995 0.83710057 0.9503332 0.84752923
000130 d8 a4 5a 3f 59 de 65 3f 11 07 6f 3f e7 99 61 3f
       0.8540778 0.897924 0.9337016 0.8812546
000140 09 28 92 3f 27 dd 69 3f 87 0b 91 3f 5a b2 5f 3f
       1.1418468 0.91353077 1.1331643 0.8738152
000150 bb 0b 6c 3f a5 b8 8d 3f 76 3d 8b 3f bd 27 6b 3f
       0.922054 1.1071974 1.0878131 0.9185751
000160 43 77 7e 3f 77 9f 73 3f 90 b2 75 3f c6 06 69 3f
       0.9940073 0.951652 0.9597559 0.9102596
000170 4e 42 65 3f 19 28 6d 3f ae 6a 76 3f 0b 77 52 3f
       0.895543 0.9263931 0.9625653 0.82212895
000180 c6 2d 72 3f 3e 7c 68 3f 1b 69 83 3f d7 c2 63 3f
       0.94601095 0.9081458 1.0266451 0.88969177
000190 22 7b 28 3f 77 0a 64 3f f5 f4 79 3f 9b 81 85 3f
       0.65812886 0.8907847 0.976394 1.0430177
0001a0 c9 c1 88 3f f6 c9 73 3f 47 fb 82 3f 03 d4 82 3f
       1.0684139 0.9523004 1.0232934 1.0220951
0001b0 d5 d8 6f 3f c8 2c 55 3f e4 64 5d 3f 11 42 84 3f
       0.93690234 0.83271456 0.8648207 1.0332662
0001c0 ed d6 5b 3f 6d c9 67 3f 37 be 70 3f 53 e0 6c 3f
       0.85874826 0.90541726 0.94040245 0.9252979
0001d0 3c d6 87 3f 71 d6 61 3f e9 49 79 3f d9 cc 88 3f
       1.0612254 0.88217837 0.973784 1.0687515
0001e0 65 11 4d 3f d8 ce 4d 3f e8 39 76 3f ed c7 5b 3f
       0.80104667 0.80393744 0.9618211 0.8585194
0001f0 10 4a 6f 3f da 3c 79 3f 00 de 6a 3f 4b 77 5e 3f
       0.93472385 0.9735848 0.91744995 0.86900777
000200 7e 94 39 3f 98 7b 3e 3f 09 a1 83 3f 64 58 83 3f
       0.72492206 0.7440734 1.0283519 1.026135
000210 ca a9 76 3f 87 af 7a 3f 54 66 68 3f a2 9e 6c 3f
       0.9635283 0.97924083 0.9078114 0.92429554
000220 6b 00 50 3f d0 27 4f 3f 8c 4f 64 3f 23 f7 94 3f
       0.8125064 0.80920124 0.8918388 1.163792
000230 e7 37 71 3f 1f 37 82 3f fb a2 76 3f 9a 16 84 3f
       0.94225925 1.0173072 0.9634244 1.0319397
000240 cb 57 75 3f f1 88 ac 3f f2 8b 74 3f 20 3a 57 3f
       0.95837086 1.3479291 0.9552604 0.84073067
000250 c5 36 75 3f 35 57 46 3f 92 40 a4 3f 2b 62 75 3f
       0.95786697 0.7747682 1.2832205 0.9585292
000260 db 09 6e 3f 9b 25 90 3f 25 1d 61 3f f7 32 6a 3f
       0.9298379 1.1261476 0.87935096 0.91484016
000270 8c 5b 39 3f d2 61 6b 3f 38 3b 5f 3f 83 6c 82 3f
       0.72405314 0.91946137 0.87199736 1.0189365
000280 50 92 69 3f eb 53 42 3f e1 f0 60 3f 19 d3 34 3f
       0.9123888 0.759093 0.8786755 0.7063461
000290 d4 da 73 3f 5e c1 5f 3f e1 bf 58 3f fa d3 86 3f
       0.9525578 0.8740443 0.84667784 1.053344
0002a0 8d 2d 6d 3f 2d df 4e 3f 4e 03 3f 3f eb 6a 81 3f
       0.9264763 0.8080929 0.7461442 1.0110754
0002b0 64 83 7a 3f 4d 30 6a 3f 1d 2e 70 3f f6 dd 79 3f
       0.97856736 0.9147995 0.93820363 0.9760431
0002c0 1c 0b 86 3f 2e 49 65 3f 45 78 5e 3f 9d 6e 7e 3f
       1.047214 0.8956479 0.86902267 0.9938753
0002d0 70 eb 70 3f 57 93 8d 3f 9c c5 68 3f c9 e9 63 3f
       0.9410925 1.106059 0.9092653 0.890286
0002e0 02 65 51 3f e6 59 61 3f d1 b6 8a 3f 77 8d 70 3f
       0.8179475 0.880278 1.0837041 0.9396586
0002f0 56 24 79 3f c7 b7 52 3f 0d 0a 56 3f 31 1f 67 3f
       0.9732107 0.8231167 0.83609086 0.9028197
000300 a5 29 62 3f cf 34 72 3f eb 05 8c 3f e4 d5 80 3f
       0.88344795 0.9461183 1.0939306 1.0065274
000310 d5 f1 21 3f 0d 9c 41 3f 0f df 8a 3f 63 b2 46 3f
       0.6325963 0.7562874 1.0849322 0.77615947
000320 54 fc 42 3f 7f 6e 85 3f 06 30 42 3f 25 4b 7a 3f
       0.7616627 1.0424346 0.7585453 0.9777091
000330 ae bc 70 3f d1 0b 63 3f 58 4e 4d 3f 33 83 37 3f
       0.940379 0.88689905 0.8019767 0.7168457
000340 2a 35 60 3f 16 b2 a3 3f fc 7c 69 3f 51 b0 5e 3f
       0.8758112 1.2788723 0.91206336 0.8698779
000350 ca 76 76 3f 5a a9 54 3f 15 de 8a 3f 3b b3 47 3f
       0.9627501 0.8307091 1.0849024 0.7800786
000360 85 4e 4d 3f 13 10 55 3f 47 cd 84 3f 6b 60 a4 3f
       0.80197936 0.8322765 1.0375146 1.2841924
000370 41 d5 52 3f ad a5 54 3f 12 ab 6d 3f 3e 1c 74 3f
       0.8235665 0.830653 0.9283916 0.95355594
000380 6c 11 66 3f 2d 7e 56 3f ae d9 68 3f 47 bd 73 3f
       0.89870334 0.8378628 0.9095715 0.9521069
000390 44 2f 81 3f 36 d5 8b 3f 41 5b 7b 3f 62 c2 5c 3f
       1.0092549 1.0924442 0.9818612 0.86234105
0003a0 4e 2a 6e 3f cf 7c 53 3f e3 b4 84 3f d2 f0 43 3f
       0.930333 0.8261232 1.0367702 0.7653934
0003b0 96 f8 2e 3f 68 03 8d 3f 44 bd 83 3f d1 61 88 3f
       0.6834806 1.1016665 1.0292134 1.0654851
0003c0 8a 16 64 3f 30 8a 87 3f f9 ef 68 3f 89 2e 57 3f
       0.8909689 1.0589046 0.9099117 0.8405538
0003d0 e0 7e 80 3f 37 05 41 3f 74 bb 81 3f 0f 35 55 3f
       1.0038719 0.7539858 1.0135331 0.83284086
0003e0 32 d4 6e 3f b8 f2 76 3f a1 9a 80 3f 3c c4 56 3f
       0.93292534 0.9646411 1.0047189 0.8389318
0003f0 4c 42 75 3f 4a df 64 3f 7d 25 5a 3f 47 0b 82 3f
       0.95804286 0.8940321 0.8521345 1.0159692

batch_norms.0.bias f4 [256]
000000 28 68 21 be 65 06 11 3e 01 7d 94 be 66 5f 51 3d
       -0.15762389 0.14162596 -0.2900162 0.05111637
000010 c6 ee c1 be 19 1c f9 be 9f cb b8 bd 10 d4 dd bd
       -0.37877482 -0.4865425 -0.09023213 -0.10831463
000020 15 44 f4 be b3 e2 0f be 80 f8 ea be 03 a0 d3 3d
       -0.47708192 -0.14051323 -0.45892715 0.10333254
000030 3a 18 97 be 33 f8 f6 be f6 19 b2 be d9 dc e7 3d
       -0.2951067 -0.48236236 -0.34785432 0.1132142
000040 d9 12 a9 be f5 43 f0 be f4 af f0 be f2 29 f2 be
       -0.33022192 -0.46926847 -0.47009242 -0.47297627
000050 f5 5b a9 3e 69 09 f7 bd 68 ef 04 bf 74 21 a3 bc
       0.3307797 -0.12062342 -0.51927805 -0.019913413
000060 4d ba d4 be c6 03 3f be 2c c4 a9 be 4a 02 b3 be
       -0.41548386 -0.18653783 -0.3315748 -0.34962684
000070 c5 50 6b be 96 a3 98 be 6b e2 0b bf 89 ed f3 be
       -0.2298003 -0.29812306 -0.5464236 -0.47642162
000080 b7 c2 95 be b2 fa f3 bd 92 5b 26 be 29 7b fc be
       -0.29250118 -0.11913051 -0.16245869 -0.49312714
000090 70 b4 98 3e 54 a6 7c be 62 fe 0c be 41 b5 7d 3e
       0.29825163 -0.24672824 -0.13768914 0.24776174
0000a0 c4 76 11 bf bc 9c 8e be 4a 07 a2 be 89 81 22 3e
       -0.56821847 -0.27853954 -0.31646186 0.15869726
0000b0 65 f8 7e be b6 25 96 be 85 3a d0 bd 96 1c 00 3e
       -0.24899442 -0.29325646 -0.10167412 0.12510905
0000c0 13 28 d7 be d4 95 99 3d c2 53 8f bd 61 96 2f bf
       -0.42022762 0.074992806 -0.069983974 -0.68588835
0000d0 22 27 6a 3e a7 bd ca be 00 c8 67 be d5 38 3b 3e
       0.2286649 -0.39597818 -0.22634888 0.18283398
0000e0 be 5f a8 be 8c 6e 05 be de 4c 1a be c7 ea 94 be
       -0.32885545 -0.13030452 -0.15068385 -0.2908537
0000f0 26 f6 60 be b4 48 b1 be 5d 60 9a 3e 17 2f da bd
       -0.21968898 -0.3462578 0.30151644 -0.10653513
000100 cf c1 bb be a1 17 8b 3b 26 9c a2 be 3c be 01 bf
       -0.36671302 0.00424476 -0.31759757 -0.506809
000110 ef e7 b1 3d f2 4f 83 bd 04 76 95 bd 37 7b c1 bd
       0.08686816 -0.06411733 -0.072979 -0.094473295
000120 8e a4 0d 3e 8c b2 ef 3c 1e 10 b0 be ff 00 cc be
       0.13832304 0.029259942 -0.34387296 -0.3984451
000130 c1 6f db be 75 69 07 3c 23 9a 08 bf 8e 5f 4d bd
       -0.428587 0.008264889 -0.53360194 -0.050139956
000140 0b 96 94 be e3 f0 23 bf 26 72 03 bf 9b d4 33 be
       -0.29020724 -0.6403944 -0.5134605 -0.17561571
000150 70 88 ec bd 93 db d1 be c7 d0 1b bf 1e c3 c9 be
       -0.11549461 -0.40987834 -0.60865444 -0.39406675
000160 b4 8f 30 be 9e bf c1 be d9 35 a9 be 18 fd 0a be
       -0.17242318 -0.37841505 -0.33048895 -0.1357311
000170 2d d7 3b be 2c 94 d4 bd e6 e1 b3 be 57 ac 08 3e
       -0.18343802 -0.10379824 -0.35133284 0.13346992
000180 a3 a1 10 be 2b f1 2f be c2 10 94 be ab d2 ee bc
       -0.1412416 -0.17181842 -0.28919035 -0.029153189
000190 c3 0c a7 3e db 87 e4 bd c6 91 ab be 46 9d c1 be
       0.32626924 -0.11158725 -0.33509654 -0.37815303
0001a0 dc 7f e9 be f1 87 79 be ce dd 06 bf b8 1a 56 ba
       -0.4560536 -0.24368264 -0.526822 -0.00081674336
0001b0 85 68 d2 be 7f ea e5 3a 85 f6 8a be 75 87 87 be
       -0.41095367 0.0017541199 -0.27141204 -0.26470533
0001c0 81 8d b3 be 0b 4c 9b 3c c4 ab 04 bf 0d bf 88 be
       -0.35068896 0.018957159 -0.51824594 -0.2670826
0001d0 12 5a a7 bc 34 ae de be 3b e5 b9 be 4a f4 f3 be
       -0.020428691 -0.4349228 -0.363077 -0.47647315
0001e0 dd 37 14 3d 07 28 8c 3d a9 b7 17 bf e1 dd 48 3d
       0.036186088 0.06843572 -0.5926462 0.049039725
0001f0 b6 c9 e4 be 16 1d df be 4b 12 d3 3d 4e e1 89 be
       -0.44685143 -0.43576878 0.103062235 -0.26929706
000200 2f 89 62 3e 48 a5 9d 3e 43 35 26 3d 0e 34 cb be
       0.22122644 0.30790162 0.040578138 -0.39688152
000210 0d 26 0e be ba 08 eb bd 69 38 12 bf 71 d9 c6 be
       -0.13881703 -0.11476274 -0.57117325 -0.3883777
000220 eb 1f 3e 3e 62 c8 0b 3d f8 31 30 be 19 c0 5d be
       0.18566863 0.034126647 -0.17206562 -0.2165531
000230 e6 fc d7 be 6f a2 84 be af 4b 6f be f9 8f cd be
       -0.42185134 -0.25905177 -0.23368715 -0.40148905
000240 d6 a6 b0 be ca aa 07 be 66 4a c2 be 33 78 ce bc
       -0.34502286 -0.13248745 -0.37947387 -0.0252038
000250 7d d9 08 bf 3b 6f a1 3c 07 ad 70 be 39 c9 13 bf
       -0.5345686 0.01970636 -0.23503505 -0.57728916
000260 86 7c 00 bf 27 de 08 bf 1e 9d 9f be f0 09 09 bf
       -0.5019001 -0.5346398 -0.31174558 -0.5353079
000270 7d 41 42 3e e5 6f 40 be bd 0c cb 3d b9 d0 b2 be
       0.18970294 -0.18792684 0.09914539 -0.34924868
000280 82 51 fb bd e1 f7 4b 3e 0a 3a 15 bf 57 fe 94 3e
       -0.12271406 0.19918777 -0.58291686 0.29100296
000290 d9 cb 89 be 36 1a ca be 05 95 30 3d f0 e8 94 be
       -0.26913336 -0.39473122 0.043110866 -0.29083967
0002a0 64 48 77 be 2a 45 93 be dd 67 d1 3d f3 db 3f be
       -0.24148709 -0.28763705 0.102248885 -0.18736248
0002b0 7d 6a 80 be 34 dc a0 be 7d 7b ec be d0 5b dd be
       -0.25081244 -0.31418002 -0.46187964 -0.4323411
0002c0 36 4e 65 be ce 45 09 bf 2b c9 92 be f8 91 75 be
       -0.22393116 -0.5362214 -0.28669104 -0.23981464
0002d0 5b 0f 0a bf ba 6b 99 be 22 1c 28 3d ac ef 0e be
       -0.5392968 -0.29965 0.041042455 -0.13958615
0002e0 11 73 e4 3d c0 c2 bb bd 2e 22 8b be ff 9a eb be
       0.1115476 -0.09168005 -0.27174515 -0.4601669
0002f0 df 6b f3 bd dc de 29 3e 49 0f e0 3d 93 f1 40 be
       -0.11885809 0.1658892 0.109404154 -0.18842153
000300 04 0c 9e be c2 54 8a be bd 81 98 be 56 67 43 be
       -0.30868542 -0.2701779 -0.29786482 -0.19082388
000310 82 47 a1 3e da 13 28 3e b4 e0 cb be a4 de 22 3e
       0.3149987 0.16413823 -0.39819872 0.15905243
000320 ea 33 05 3e f8 ae 91 be 2c ab 39 3e 14 2a bc be
       0.13008085 -0.28453803 0.18131703 -0.36750853
000330 37 3f dd bd 00 e0 18 be 02 78 b9 3d 3c fa bf 3e
       -0.10803073 -0.14929199 0.09056093 0.374956
000340 90 e1 84 3d 31 56 aa be f0 a6 e0 be 3e f5 71 3d
       0.06488335 -0.33268884 -0.43877363 0.05907177
000350 ad 8c 4e be 9d 01 d7 3d 1f 27 54 bd 62 98 a2 3d
       -0.20170851 0.104983546 -0.05179512 0.07939221
000360 ea 0b 65 be 4b 13 bd bd 0e 80 05 bf 12 61 87 be
       -0.22367826 -0.092321955 -0.5214852 -0.26441246
000370 cb 69 a2 bd 15 d2 2e 3d 7f 09 19 bf 21 f5 bd be
       -0.07930335 0.04268082 -0.59780115 -0.3710108
000380 48 50 2b be 89 df 6f be f4 f6 9b be 36 12 07 be
       -0.16729844 -0.23425116 -0.30461848 -0.1319054
000390 f4 a2 e9 be d8 f5 f6 be c6 f1 16 be a7 f7 0f bf
       -0.45632136 -0.4823444 -0.14740667 -0.5623726
0003a0 fb 24 e8 bd 83 da a9 bd cf 41 54 be d0 bb 1d 3e
       -0.113351785 -0.08293631 -0.20728229 0.15403676
0003b0 dc ff 91 3e bc bd 99 be 27 c1 0a bb a1 3f d9 be
       0.28515518 -0.30027568 -0.0021172257 -0.42431358
0003c0 1b ce 5d be af ae cd be aa 5b a1 be 8b bc 29 bd
       -0.21660654 -0.40172336 -0.31515247 -0.041439574
0003d0 c6 7e fb bc c4 dd 50 3e ab c8 b5 bd bc 1e 0f bd
       -0.030700099 0.20397097 -0.08876165 -0.03494142
0003e0 c2 95 5d be f7 c9 9f bd c5 cb e5 be e8 2c d6 be
       -0.2163916 -0.078021936 -0.44882026 -0.41831136
0003f0 b2 a7 35 be b9 8a e3 be 45 30 e3 be ce 7b d2 be
       -0.17739752 -0.44441774 -0.44372764 -0.4111008

batch_norms.0.running_mean f4 [256]
000000 b4 2c 5e 44 6a de 55 c3 1a 0d e9 43 c3 22 41 43
       888.6985 -213.8688 466.10236 193.13579
000010 57 97 3d 44 dc ae 3f c4 5b 03 b2 41 24 f6 14 44
       758.3647 -766.7322 22.251638 595.84595
000020 da 82 bf c4 62 39 0b c4 2e a9 16 44 bd 5a fb 3e
       -1532.0891 -556.8966 602.64343 0.49092665
000030 2d d6 e3 43 c2 cc 46 c4 1d 00 f7 c2 dc 26 d8 43
       455.67325 -795.19934 -123.50022 432.3036
000040 fd 0e aa c4 dc 2f b3 c3 ec f7 65 c3 ed 1a c4 c4
       -1360.4684 -358.3739 -229.96844 -1568.8414
000050 38 56 10 42 85 dc db c2 49 d9 09 44 23 cb de c3
       36.084198 -109.9307 551.3951 -445.587
000060 67 ff 85 43 c9 5a 94 44 f3 c5 21 43 d5 b8 9e c2
       267.99533 1186.837 161.77324 -79.361
000070 32 f1 1d 44 54 a0 30 c4 91 0c b4 42 38 ff 64 44
       631.7687 -706.5051 90.02454 915.9878
000080 c0 15 de 43 c6 06 7f 44 71 33 35 44 de 4a 55 c4
       444.16992 1020.10583 724.8038 -853.1698
000090 9d 54 25 c4 0a f4 98 44 73 ee 84 44 c3 6f 3d 44
       -661.3221 1223.6262 1063.4515 757.7463
0000a0 c1 05 88 c3 c9 89 a2 43 b6 3a b4 43 74 7b 20 c3
       -272.04495 325.07645 360.45868 -160.48224
0000b0 ec 02 79 43 d9 8c 9b 43 5d 75 c1 c1 dd 76 e9 c1
       249.01141 311.10037 -24.182306 -29.183039
0000c0 3c 4b 5c c4 2f d7 60 c4 f5 3a a6 c3 91 fd d5 c3
       -881.17554 -899.36224 -332.4606 -427.981
0000d0 1d df bb 43 7a 7c 4b c4 6a 76 6b 44 67 c1 26 43
       375.74307 -813.94495 941.8502 166.75548
0000e0 09 d3 7c c4 21 6c 6d c4 9a 3b dd c3 e6 6c c5 c4
       -1011.2974 -949.6895 -442.46564 -1579.4031
0000f0 54 12 84 44 5b d7 f2 c3 68 de 05 41 04 34 8e c3
       1056.5728 -485.68246 8.366798 -284.40637
000100 44 d8 41 43 b8 48 0c 43 92 1b 64 44 db 3a 5a 42
       193.84479 140.28406 912.4308 54.557476
000110 87 7c e1 43 54 f7 7d c4 0f 3b 01 c2 d5 f9 c5 42
       450.97287 -1015.8645 -32.307674 98.98795
000120 b3 13 06 43 4a 3d 92 c4 de 02 09 43 81 8c 9c 43
       134.07695 -1169.9153 137.0112 313.0977
000130 18 d7 03 44 90 52 0f 43 d6 82 5d 44 68 0d 31 44
       527.36084 143.32251 886.0443 708.2095
000140 e0 ea 12 44 ba ec 9a 43 61 fb 68 c4 8c 84 fc 41
       587.6699 309.84943 -931.9278 31.56472
000150 60 b8 9c 43 bf 61 87 c3 08 f8 26 c4 b4 af 10 44
       313.44043 -270.76364 -667.8755 578.74536
000160 bc 47 d9 43 9a c1 f9 c2 ee c5 16 44 19 75 3f 41
       434.56042 -124.87813 603.09265 11.966088
000170 09 3c 87 44 d9 f4 81 44 49 e3 47 c4 57 9f 14 42
       1081.8761 1039.6515 -799.55133 37.155605
000180 22 96 24 44 4b 4c bf c2 6f f9 89 c4 a5 4c 07 c3
       658.3458 -95.64901 -1103.7948 -135.2994
000190 0d 40 68 43 96 65 31 44 36 20 04 c3 06 48 8b c4
       232.2502 709.5873 -132.12582 -1114.2507
0001a0 8e 75 7c c4 7f 3c bb 44 39 f2 06 c3 56 36 83 c4
       -1009.8368 1497.8905 -134.94618 -1049.698
0001b0 97 fd ba 43 ee bd 3f c3 8b 77 31 43 7a 19 bd 43
       373.98117 -191.74191 177.46696 378.19904
0001c0 28 d5 a3 c3 fb fd 84 c4 6e c5 0d 44 16 14 cb 43
       -327.66528 -1063.9369 567.08484 406.15692
0001d0 db 8e 5d c4 4d 3d c4 42 49 04 8f 42 05 e0 bf c2
       -886.2321 98.11973 71.50837 -95.93754
0001e0 ef 2f d2 43 2f fc 31 c3 21 e1 e3 43 1a 08 3e 43
       420.37448 -177.98509 455.75882 190.03165
0001f0 51 c6 95 c3 67 2c c7 c3 58 6f a3 c4 b6 62 39 44
       -299.54935 -398.3469 -1307.4795 741.54236
000200 cf a2 08 c3 58 ab 02 43 bc f9 88 c4 d7 c3 84 c2
       -136.63597 130.66931 -1095.8042 -66.3825
000210 76 c3 25 c3 19 c0 a0 43 e4 0e 34 c4 6c 03 e6 40
       -165.76352 321.50076 -720.23267 7.1879177
000220 f2 ac 0a 43 61 ee 3c c3 12 af b9 43 a0 90 16 c4
       138.67557 -188.93117 371.36774 -602.25977
000230 38 c3 4a c4 9a b1 a1 43 57 08 89 43 8b 03 9d 43
       -811.0503 323.3875 274.06516 314.02768
000240 66 dd 60 42 6c 0e c0 c2 3f 6e dd c4 e2 32 56 c3
       56.21621 -96.02817 -1771.4452 -214.19876
000250 d8 40 69 c4 fd cf e9 43 b9 22 ef c3 b2 4a 11 c4
       -933.0132 467.6249 -478.27127 -581.1671
000260 1b 79 14 44 10 de 75 c4 04 3c ca c3 6b f7 35 c4
       593.8923 -983.4697 -404.46887 -727.8659
000270 f3 04 ca 42 3a d1 9e c3 b3 7f a1 c3 44 45 89 c4
       101.00967 -317.63458 -322.99765 -1098.1646
000280 2c f7 42 c3 fa e4 95 c3 a5 b6 43 44 b2 4d 49 c3
       -194.96552 -299.78888 782.8538 -201.3035
000290 bc 44 14 44 b6 b0 69 44 df fd 23 43 18 f8 61 44
       593.074 934.7611 163.99168 903.87646
0002a0 06 fb 27 43 f4 4f 06 44 1b 7e 8f 43 4c 74 68 c3
       167.98056 537.24927 286.9852 -232.45428
0002b0 69 db 8f 44 f3 c9 bd 43 5f 68 8c 43 24 2b 14 44
       1150.8566 379.57773 280.8154 592.6741
0002c0 94 db 12 c4 19 fa ea c3 47 72 2b 44 5b 6c 2c 44
       -587.4309 -469.9539 685.7856 689.69305
0002d0 a5 1b 89 43 6b d5 cb c3 ba 11 55 c4 3a 52 e3 43
       274.21597 -407.66733 -852.277 454.6424
0002e0 43 7f 43 44 57 13 58 c2 9c ca 00 43 c0 11 da c1
       781.98846 -54.018887 128.79144 -27.258667
0002f0 b1 56 1c 43 8d b0 45 c3 ce a1 c9 c1 86 f0 5d 44
       156.33864 -197.68965 -25.204006 887.7582
000300 ec 53 0d 44 f7 a2 fe 43 4c 95 50 c4 2b 3c 40 44
       565.3113 509.27316 -834.33276 768.9401
000310 b0 a2 19 43 01 b3 21 42 2f bc 94 c4 a9 0a 35 42
       153.6355 40.42481 -1189.8807 45.26041
000320 7e c8 38 c3 6c 2b 5d 44 d6 66 d6 43 3f d2 14 c2
       -184.78317 884.67847 428.8034 -37.20532
000330 bb 5d 4e 44 d1 13 9b 43 0e 30 80 43 d0 ad bd c3
       825.46454 310.15482 256.37543 -379.3579
000340 0c f9 bb 43 7c 15 48 c4 2b ab 65 c4 83 a2 28 44
       375.94568 -800.3357 -918.6745 674.53925
000350 4c 04 72 c4 4a cb a6 43 c5 b0 47 c4 d6 1d 44 c3
       -968.06714 333.5882 -798.762 -196.11655
000360 20 e8 4a 43 dd a5 cb 43 56 f2 de 41 da 2e 40 c3
       202.90674 407.2958 27.868328 -192.18301
000370 28 35 5a c3 44 81 f7 c2 30 e9 82 42 9c 4b b6 42
       -218.20764 -123.75247 65.455444 91.147675
000380 07 54 cc c2 c6 c9 46 44 48 1a be c3 75 bd 63 44
       -102.164116 795.1527 -380.20532 910.96027
000390 dd cf 47 c3 bf 1c 94 c3 0a e2 15 c3 9e 1b 19 c3
       -199.81197 -296.22458 -149.88297 -153.10788
0003a0 9e fd b8 c4 b8 26 10 c3 e5 37 ef c3 59 5e 3f 44
       -1479.9255 -144.15125 -478.43668 765.4742
0003b0 9f 20 b9 43 6c 52 28 41 9a 71 59 c4 4f 8f e6 c3
       370.25485 10.520123 -869.775 -461.1196
0003c0 48 2c e6 c3 e7 5a a5 c3 20 5b 42 c4 ff ae b1 c3
       -460.34595 -330.71017 -777.4238 -355.36716
0003d0 a8 36 8c 43 e5 e6 ab c3 94 68 e3 42 5c f8 86 c3
       280.427 -343.80386 113.704254 -269.9403
0003e0 6a 37 eb 43 d3 5c 7e c3 36 35 4f 43 ae d7 d0 43
       470.43292 -254.3626 207.20786 417.685
0003f0 f9 02 d5 c3 8c e8 f0 43 c9 98 01 c2 a3 30 16 3f
       -426.02322 481.81677 -32.399204 0.58667964

batch_norms.0.running_var f4 [256]
000000 54 24 f8 40 b6 d0 b6 42 73 cf 1c 43 b3 e9 3d 43
       7.7544346 91.40764 156.81035 189.91289
000010 b7 1b 0d 40 08 55 07 42 ca e4 30 42 6b 97 8a 41
       2.2048166 33.83304 44.223427 17.323935
000020 e0 1c d3 41 f4 86 4f 41 08 96 02 41 8e 16 02 43
       26.3891 12.970448 8.161629 130.0881
000030 5e 1b 1c 40 0f b3 7b 40 32 9d db 3f 39 3a f2 41
       2.4391704 3.9328039 1.7157347 30.278429
000040 0e 81 12 42 78 05 86 41 2a 86 8c 40 3d 23 b9 42
       36.62603 16.75267 4.3913774 92.568825
000050 c1 49 74 42 df b0 0d 40 fe de 15 41 1d 0e 6f 42
       61.072025 2.2139204 9.366941 59.763783
000060 e2 2a 19 40 3c f6 c4 40 d3 83 19 42 d4 a3 81 40
       2.3932424 6.155058 38.378735 4.0512486
000070 5b 0c be 41 1c 20 54 41 2d c0 d6 40 c9 79 3f 41
       23.756033 13.257839 6.710959 11.967233
000080 46 74 62 40 39 19 92 42 80 19 de 40 47 21 f8 41
       3.5383468 73.04926 6.940613 31.016249
000090 54 3d 1f 42 23 a9 64 42 aa e4 5f 42 9c 80 34 41
       39.80989 57.165173 55.973305 11.281399
0000a0 76 db b3 40 27 75 e1 40 24 61 31 41 60 2a be 42
       5.6205397 7.045551 11.086216 95.08276
0000b0 ba 50 e6 41 64 76 a6 41 6d 45 4c 42 59 75 65 41
       28.789417 20.807808 51.0678 14.341149
0000c0 11 b3 9a 42 85 cc 28 42 e0 dd 30 42 ce ce 3d 40
       77.34974 42.199726 44.216675 2.9657474
0000d0 34 43 bb 40 96 6e 3b 42 b2 78 c2 41 9a 52 84 42
       5.8519535 46.857994 24.308933 66.16133
0000e0 5f 2d 89 42 01 c1 a6 40 0a cc ec 40 3d 4a 66 42
       68.588615 5.21106 7.399907 57.5725
0000f0 99 63 66 41 39 8e 2d 40 4d 63 11 41 5d 80 4c 42
       14.399316 2.7118056 9.086743 51.125355
000100 ba 9d ad 41 54 d4 4b 41 89 0a 00 41 1e 5c 09 40
       21.702015 12.739338 8.002572 2.1462474
000110 29 1f a2 41 24 12 4e 41 80 16 70 41 75 4a 00 42
       20.265215 12.879429 15.005493 32.072712
000120 a1 13 99 42 fd 02 ac 41 7e 66 01 42 0a 2b ce 3f
       76.53834 21.50146 32.35009 1.6106884
000130 d5 8c a5 3f 0e 6c 97 40 b8 b5 29 41 48 6e 39 42
       1.2933604 4.7319403 10.606865 46.357697
000140 e2 3f 9e 41 b7 e6 2e 3f e2 9d e4 41 50 e3 0a 43
       19.781193 0.6832079 28.577091 138.88794
000150 90 29 6b 41 3e c6 30 40 34 bc 51 40 3f 1f 0b 42
       14.697647 2.7620997 3.277112 34.780514
000160 17 73 62 41 1b 99 43 41 cb cd 32 3f 2c e3 97 42
       14.153098 12.224879 0.69845265 75.943695
000170 f4 00 c7 41 d1 a4 99 41 31 f3 89 40 07 4c 5b 42
       24.875465 19.205477 4.3109365 54.824245
000180 ad 43 3b 41 15 46 b1 41 ea 2e 28 42 01 1a e5 40
       11.704022 22.15922 42.045815 7.1594243
000190 14 23 c7 41 88 24 71 42 93 9d 0b 40 ba ed 34 42
       24.892128 60.285675 2.1814926 45.232155
0001a0 6d f8 e3 41 b8 66 0b 41 ec af 7c 40 dd ea cf 41
       28.496302 8.712578 3.9482374 25.98968
0001b0 90 cf 85 42 a1 89 3c 42 5f 50 79 42 fc 6c 70 41
       66.905396 47.134403 62.328487 15.0266075
0001c0 52 7b ac 41 9a 72 1a 42 72 19 ed 3f 6d 70 bc 40
       21.560215 38.611916 1.852339 5.888724
0001d0 36 1d f7 41 87 c7 1d 42 3e ae 06 41 32 fb 20 41
       30.889263 39.44485 8.41754 10.061327
0001e0 15 02 bb 40 3e 00 79 43 fa 7f 8e 3f 67 4d 97 41
       5.844004 249.00095 1.1132805 18.912794
0001f0 1f 76 ca 40 e0 56 5c 40 33 f7 04 42 2e 08 0a 41
       6.326919 3.4428024 33.241405 8.626997
000200 9a bb 13 42 28 66 63 41 29 36 eb 41 13 79 cb 40
       36.933205 14.2124405 29.401445 6.3585296
000210 bb e8 8c 40 16 4e dd 41 cc 24 b8 41 e9 f9 9c 41
       4.4034095 27.663128 23.017967 19.622026
000220 d2 a4 8e 41 87 9c 28 42 e4 91 8b 42 db d5 9c 40
       17.830479 42.15286 69.78494 4.9011054
000230 37 2b 05 40 8f bb 63 42 95 af 05 42 28 bf 3e 40
       2.0807626 56.933163 33.421467 2.9804173
000240 da 10 b0 42 83 09 50 40 e5 0c 70 42 79 8e 8c 40
       88.03291 3.2505805 60.012592 4.3923917
000250 35 66 f2 40 31 79 0d 42 9f 50 50 40 25 56 67 42
       7.5749764 35.36835 3.2549207 57.834126
000260 57 37 06 41 86 54 8c 41 5b af 46 42 e8 1b 5e 40
       8.388511 17.541271 49.671246 3.4704533
000270 7a f3 17 43 fe 5d bb 42 9d db a2 40 db a4 08 42
       151.95108 93.68358 5.0893083 34.16099
000280 7f b9 0a 41 78 6c 43 42 17 db 47 40 5f f0 a8 41
       8.670287 48.855927 3.1227472 21.117369
000290 13 14 42 41 e1 56 88 3f 07 f6 41 42 9c 3b 58 42
       12.129901 1.0651513 48.49026 54.058212
0002a0 26 90 e1 42 0b 6a 07 40 49 36 13 43 81 aa 78 41
       112.78154 2.1158473 147.21205 15.541627
0002b0 1b 90 7a 40 10 ec 4e 3f 23 56 90 40 12 da 67 42
       3.9150455 0.8082895 4.5105147 57.96296
0002c0 2c 3a 8f 41 f1 84 9e 41 71 a9 e4 40 10 30 fa 41
       17.903404 19.814913 7.145684 31.273468
0002d0 50 8f 37 3f a4 3a 11 40 4d 3f 20 42 13 51 60 42
       0.7170305 2.2692041 40.061817 56.079174
0002e0 8e ce 35 43 49 d1 23 42 cf 13 80 41 66 7c c9 40
       181.80685 40.95438 16.009672 6.2964354
0002f0 e2 4a 41 42 73 e7 36 41 b4 6a 00 42 7a 14 83 41
       48.323128 11.431506 32.104202 16.384998
000300 d5 01 31 3f 85 a7 e4 40 0b d7 04 42 06 dd 14 41
       0.6914342 7.145449 33.210003 9.303961
000310 b3 b4 1c 42 ea 1f b4 41 88 0b c4 41 73 bf 66 42
       39.176464 22.515583 24.50563 57.686962
000320 fc 06 b7 42 8e 84 76 41 9c 89 18 42 76 9b 99 40
       91.51364 15.407362 38.134384 4.800227
000330 4c a5 0d 41 ca 2b 46 42 31 93 b9 42 7c ad 82 42
       8.852856 49.542763 92.78748 65.33884
000340 62 ab 6c 42 60 00 4a 40 88 ee 32 42 f9 4f 88 41
       59.167366 3.156273 44.73294 17.03905
000350 9b 83 84 41 74 39 8b 41 c2 6b 5b 41 06 41 92 42
       16.56426 17.403053 13.713808 73.127
000360 bf 2c 5a 41 c0 c8 bb 42 59 1c 39 40 7f 47 81 40
       13.635924 93.89209 2.8923552 4.0399776
000370 f0 55 c1 42 06 9a 97 42 8a 9a 8c 3f 24 9e ab 40
       96.66785 75.80083 1.0984662 5.3630543
000380 6e 82 b6 42 98 a4 12 41 7e 32 75 41 7d f1 c1 41
       91.254745 9.165184 15.324827 24.242914
000390 c7 15 03 40 c5 6f 9e 40 fd 97 d1 40 5e 83 c8 40
       2.0482042 4.9511437 6.5498033 6.266036
0003a0 76 b3 89 42 96 37 2d 43 df 40 be 40 4d 6c 97 41
       68.85051 173.21713 5.945419 18.927881
0003b0 e2 03 5f 43 0e e6 5d 41 c0 06 49 42 ac 8c 62 41
       223.01517 13.868666 50.25659 14.159344
0003c0 ac 6e b7 42 27 97 42 41 ab 2f 90 42 f5 e0 e5 42
       91.716156 12.161902 72.0931 114.93937
0003d0 b7 d8 05 41 8f b0 ab 41 28 da c8 3f 03 0c 95 42
       8.365409 21.46121 1.5691576 74.52346
0003e0 05 c7 d4 40 be dc 0d 41 48 a4 2e 41 86 4d a8 3f
       6.6492944 8.866392 10.915108 1.3148658
0003f0 04 a1 60 42 42 57 6d 3f ec 2a 18 41 1b 2a 3f 40
       56.15724 0.9271127 9.510479 2.986945

batch_norms.1.weight f4 [256]
000000 3a 6d be 3f 88 f5 bd 3f d7 25 bb 3f 2d 72 b9 3f
       1.4877083 1.4840555 1.4620923 1.4487969
000010 c3 91 be 3f 74 4f c0 3f cd 35 ba 3f d1 43 b9 3f
       1.4888233 1.5024247 1.4547669 1.4473821
000020 01 4f bd 3f ac 32 c0 3f 7d d3 bd 3f ef ed ba 3f
       1.4789735 1.5015464 1.4830166 1.4603862
000030 2c dd ba 3f 9e 96 be 3f f7 15 ba 3f 69 44 be 3f
       1.4598746 1.4889715 1.4537953 1.4864627
000040 5e 32 b7 3f 08 fc b8 3f 4f eb c0 3f 9c c7 bc 3f
       1.4312246 1.4451914 1.507181 1.4748416
000050 fe c6 b9 3f 32 d0 bc 3f fa 7d bb 3f c6 66 b9 3f
       1.4513853 1.4751036 1.464782 1.4484489
000060 3e bb b9 3f bf 4a b7 3f 2b 0e bb 3f 1d 0b bf 3f
       1.4510267 1.4319686 1.4613699 1.4925267
000070 5c fa be 3f f9 34 bd 3f 87 1f b8 3f ad 69 be 3f
       1.4920154 1.4781791 1.4384621 1.4876
000080 0d 6f c1 3f bd 3c bc 3f 1f 2d bc 3f ba 14 c0 3f
       1.5112015 1.4706036 1.470127 1.5006325
000090 de 42 bd 3f f1 24 c1 3f 24 e2 b7 3f d1 4f bf 3f
       1.4786031 1.5089399 1.4365888 1.4946233
0000a0 ca 4c b4 3f 7f ae b9 3f 1e c9 bd 3f b6 d6 ba 3f
       1.4085934 1.4506377 1.4827001 1.4596775
0000b0 46 dc bc 3f f0 2f ba 3f d7 74 bc 3f 7c 38 b6 3f
       1.4754722 1.4545879 1.4723157 1.4235988
0000c0 98 23 b9 3f dd 4f bb 3f ea 13 c0 3f f7 8c bb 3f
       1.4463987 1.4633747 1.5006077 1.4652394
0000d0 f5 ef ba 3f 9c ba bc 3f 2a e7 b8 3f de b5 bb 3f
       1.4604479 1.4744449 1.4445546 1.4664876
0000e0 a4 88 bf 3f f9 f6 be 3f 44 a0 b9 3f 90 5e ba 3f
       1.4963574 1.491912 1.4502034 1.4560108
0000f0 f2 2d bb 3f 65 f0 bd 3f 5f 88 b8 3f 7d 01 c0 3f
       1.4623396 1.4838988 1.4416617 1.5000454
000100 8c 13 bf 3f 58 f4 bd 3f bf 0a b8 3f cc 0e ba 3f
       1.492784 1.4840193 1.437828 1.4535766
000110 6a b1 ba 3f a4 04 be 3f 3c ec bd 3f cf 15 bd 3f
       1.4585392 1.4845166 1.4837718 1.477228
000120 0d 60 b9 3f 6b 33 b7 3f 72 41 c1 3f e5 55 b9 3f
       1.4482437 1.4312567 1.5098097 1.4479338
000130 31 93 b8 3f fb af b6 3f cc 83 be 3f 33 7d bb 3f
       1.4419919 1.4272455 1.4883971 1.4647583
000140 27 21 bb 3f 27 82 bd 3f 4b 51 ba 3f c5 bf bd 3f
       1.4619492 1.4805344 1.4556059 1.4824148
000150 ea e6 b9 3f 2c 1a bf 3f cf 0a b8 3f fe 6b c1 3f
       1.4523594 1.4929862 1.4378299 1.5111082
000160 f6 53 bb 3f 57 9e b7 3f 64 15 c0 3f 34 13 bf 3f
       1.4634998 1.4345196 1.5006528 1.4927735
000170 ec 5a ba 3f 37 3b be 3f 65 0d b6 3f 60 9d b7 3f
       1.4558997 1.4861821 1.4222838 1.4344902
000180 b8 4b ba 3f 86 8a c0 3f 47 02 b8 3f 58 78 bf 3f
       1.4554358 1.5042274 1.4375695 1.4958601
000190 f3 9d be 3f 74 09 b9 3f 2f e9 b9 3f 27 a4 bd 3f
       1.4891952 1.445601 1.4524287 1.481572
0001a0 28 db b9 3f 4b 39 be 3f 8f 08 bf 3f cf c7 c0 3f
       1.4520006 1.4861234 1.4924487 1.5060977
0001b0 1f 78 be 3f a2 7a b7 3f 10 cc b8 3f 76 a4 b9 3f
       1.4880408 1.43343 1.4437275 1.4503314
0001c0 26 a7 b9 3f 0d e0 bd 3f dd 9a bc 3f 29 67 b9 3f
       1.4504135 1.4834 1.473476 1.4484607
0001d0 c1 eb bd 3f bc fc b6 3f e6 d5 be 3f fb 3f bd 3f
       1.4837571 1.4295878 1.4909027 1.478515
0001e0 48 78 c0 3f dc 88 b9 3f d0 cb bf 3f d8 0c b7 3f
       1.5036707 1.4494891 1.4984074 1.4300795
0001f0 ea d4 be 3f b9 29 bd 3f 24 0c ba 3f fe 47 b6 3f
       1.4908726 1.4778358 1.4534955 1.424072
000200 18 8e be 3f 77 ed bb 3f d3 e4 b8 3f 9e dd b4 3f
       1.4887114 1.4681844 1.4444832 1.4130132
000210 33 74 ba 3f 8c 0e bd 3f e7 82 bd 3f 49 27 b7 3f
       1.4566711 1.4770064 1.4805573 1.4308864
000220 9e e8 ba 3f 81 38 bb 3f 8d bf bc 3f 74 e9 b8 3f
       1.4602239 1.4626619 1.4745957 1.4446244
000230 ee db b7 3f 87 07 be 3f e0 66 bc 3f 4e 3a b7 3f
       1.4363992 1.4846047 1.4718895 1.4314668
000240 38 7e b9 3f 25 65 c0 3f 20 c4 b7 3f d9 63 b6 3f
       1.4491644 1.5030867 1.4356728 1.4249221
000250 0b 7c bd 3f 95 9b b9 3f 4f 31 c0 3f ce 1d bd 3f
       1.480348 1.4500605 1.5015048 1.4774721
000260 6e 3f bf 3f fc 54 b6 3f f7 de bf 3f b3 e7 b8 3f
       1.4941232 1.4244685 1.4989918 1.4445709
000270 02 e9 bf 3f 1f 1d b6 3f 6e ee bc 3f d7 d1 b9 3f
       1.4992983 1.4227637 1.4760263 1.4517163
000280 78 48 b8 3f 10 74 bc 3f 65 bd b9 3f 98 dd b7 3f
       1.4397116 1.472292 1.4510924 1.43645
000290 ac 1d b6 3f 2c fe bc 3f 9f e6 b5 3f e0 88 ba 3f
       1.4227805 1.4765067 1.4211005 1.4573021
0002a0 38 b9 c1 3f 57 2e b7 3f 1d 49 b5 3f 8a 5f b8 3f
       1.5134649 1.4311017 1.4162937 1.4404156
0002b0 58 2f b7 3f d7 87 be 3f a2 aa ba 3f d2 b5 ba 3f
       1.4311323 1.4885205 1.4583323 1.4586737
0002c0 29 c0 bd 3f 0d 86 be 3f 92 ad b7 3f 4c 58 bb 3f
       1.4824268 1.4884659 1.4349844 1.4636321
0002d0 d5 32 bb 3f f5 3f b9 3f 64 6b be 3f 6b fe bd 3f
       1.4624888 1.4472643 1.4876523 1.4843267
0002e0 1c ae b9 3f 41 10 b7 3f a1 dd b7 3f b1 23 b7 3f
       1.4506259 1.4301835 1.4364511 1.4307767
0002f0 3e 3e bf 3f ff 3c ba 3f e3 72 b6 3f 52 9b bc 3f
       1.494087 1.4549865 1.4253811 1.47349
000300 17 d3 b6 3f 54 dc c0 3f ad e5 b6 3f db 60 bf 3f
       1.428317 1.5067239 1.4288841 1.4951433
000310 cf 07 ba 3f 2e 75 b6 3f 81 d1 bb 3f 46 ce b7 3f
       1.4533633 1.425451 1.467331 1.4359825
000320 f6 23 c0 3f fd b9 bf 3f c9 00 b9 3f c4 2d ba 3f
       1.5010974 1.4978634 1.4453365 1.4545217
000330 95 67 b9 3f 11 9b ba 3f 2e 0e b9 3f 87 cc b9 3f
       1.4484736 1.4578573 1.4457452 1.4515542
000340 47 56 ba 3f bf 74 c0 3f d9 14 bc 3f b1 e2 b7 3f
       1.455758 1.5035628 1.4693862 1.4366056
000350 1d 2b b9 3f e0 3b b5 3f 43 28 c0 3f 20 a4 b9 3f
       1.4466282 1.4158897 1.5012287 1.4503212
000360 90 32 b9 3f f1 a7 bc 3f 07 04 be 3f 11 2e b8 3f
       1.4468555 1.4738752 1.4844979 1.4389058
000370 4a fc bb 3f f4 31 b4 3f 42 31 b5 3f 40 7f b5 3f
       1.4686368 1.4077744 1.4155657 1.4179459
000380 44 26 ba 3f 81 90 bd 3f 8c a3 ba 3f 31 0b be 3f
       1.4542928 1.4809724 1.458116 1.4847165
000390 6b 6f b9 3f c6 14 bd 3f 8c 02 c1 3f 97 07 b8 3f
       1.4487127 1.4771965 1.5078902 1.4377316
0003a0 91 cc b6 3f 2a c7 b6 3f cf f4 be 3f f9 7a b9 3f
       1.4281179 1.427953 1.491846 1.4490653
0003b0 0f 7d bc 3f 92 6d bd 3f 99 a1 be 3f 75 5c bc 3f
       1.4725665 1.4799063 1.4893066 1.4715716
0003c0 11 a9 bc 3f a0 68 b8 3f 72 f5 b8 3f 20 05 b5 3f
       1.4739095 1.4406929 1.4449904 1.4142189
0003d0 b3 a8 bd 3f c2 df b5 3f e2 b1 ba 3f d8 5a b6 3f
       1.4817108 1.420891 1.4585536 1.4246473
0003e0 88 89 b7 3f 3b 1b c0 3f fc d0 bf 3f bf 96 b6 3f
       1.4338846 1.500831 1.4985652 1.4264754
0003f0 db b8 ba 3f 23 09 bb 3f 9f 3b bf 3f 70 09 bb 3f
       1.4587663 1.4612163 1.494007 1.4612255

batch_norms.1.bias f4 [256]
000000 ec 9e 0b 3f fd da 0a 3f 5d ad 09 3f 9b d3 fb 3e
       0.5453937 0.542404 0.53780156 0.4918488
000010 fb 28 0b 3f 43 87 0a 3f d6 5a ff 3e d9 e2 f8 3e
       0.54359406 0.54112643 0.4987399 0.4861057
000020 d9 13 08 3f 18 dd 10 3f 41 ce 07 3f 87 60 02 3f
       0.53155285 0.5658736 0.53049093 0.5092854
000030 c0 9c fe 3e 9f 54 0d 3f fc 4d fc 3e d4 8c 09 3f
       0.49728966 0.55207247 0.49278247 0.5373051
000040 4a 52 ee 3e 82 42 fc 3e a1 e2 0f 3f f4 6e 05 3f
       0.46547157 0.4926949 0.56205183 0.52122426
000050 2d c9 02 3f af 88 07 3f 16 0b fd 3e 99 47 fc 3e
       0.5108822 0.5294294 0.4942252 0.49273375
000060 8e 5e ff 3e 03 2f f1 3e f3 7a fd 3e 6d 1b 07 3f
       0.49876827 0.4710618 0.49507865 0.52776223
000070 d3 18 17 3f 31 08 04 3f 85 d0 fa 3e 8b 29 16 3f
       0.59022254 0.51575 0.48987213 0.5865714
000080 70 53 0f 3f 94 cf 05 3f 8a 5e 07 3f 42 f3 0e 3f
       0.5598669 0.52269864 0.5287863 0.5583993
000090 7d 2c 14 3f 76 aa 0c 3f b1 c5 fa 3e d4 fd 0a 3f
       0.57880384 0.549476 0.48978952 0.5429356
0000a0 e2 74 e0 3e e0 bf f9 3e e0 95 07 3f 5c 3f fe 3e
       0.43839175 0.48779202 0.52963066 0.49657714
0000b0 56 13 01 3f 50 c5 f4 3e 05 8e 02 3f 03 77 e3 3e
       0.5042013 0.47806787 0.50997955 0.44426736
0000c0 19 79 ff 3e 95 0e 02 3f 29 75 0a 3f dd 5e 04 3f
       0.49897078 0.508035 0.5408502 0.5170725
0000d0 70 4d 00 3f 09 7f 05 3f 43 85 fe 3e fb 0a fd 3e
       0.5011816 0.52146965 0.49711046 0.4942244
0000e0 96 4d 11 3f 83 68 08 3f d5 45 01 3f e5 68 f3 3e
       0.5675901 0.5328447 0.5049718 0.47540966
0000f0 29 7f fe 3e 99 d8 0b 3f c2 fa fd 3e c9 df 0f 3f
       0.4970639 0.54627377 0.49605376 0.56200844
000100 e8 98 0f 3f c5 2f 1c 3f 40 78 f9 3e cf 98 00 3f
       0.5609269 0.6101039 0.48724556 0.5023317
000110 dd 74 0e 3f 14 3e 0b 3f a3 53 05 3f 69 ce 09 3f
       0.5564707 0.543916 0.52080745 0.5383058
000120 72 62 03 3f 4a a8 01 3f 8b b7 0f 3f 7d 10 00 3f
       0.5132209 0.50647414 0.5613944 0.5002516
000130 ef 59 ed 3e ca 1f 01 3f 95 98 06 3f e3 75 02 3f
       0.46357676 0.5043913 0.5257657 0.5096113
000140 f5 40 03 3f 22 b9 10 3f e8 e0 f8 3e e6 63 0a 3f
       0.5127099 0.5653249 0.4860909 0.5405868
000150 35 e0 f4 3e 05 24 0b 3f 5b 78 04 3f 1f bf 10 3f
       0.47827306 0.54351836 0.5174615 0.5654163
000160 51 6d 02 3f d9 43 f4 3e f2 55 0f 3f 49 44 0b 3f
       0.50948054 0.47708014 0.5599052 0.5440107
000170 60 34 fc 3e e6 63 08 3f f1 2f e2 3e 78 55 00 3f
       0.4925871 0.5327743 0.441772 0.50130415
000180 2d 78 01 3f ca 32 09 3f 2a 66 f0 3e ff b3 0d 3f
       0.50574 0.5359312 0.46952945 0.5535278
000190 06 fe 0d 3f e5 a0 02 3f 8d 42 f3 3e 7b 7e 07 3f
       0.55465734 0.51026756 0.47511712 0.5292737
0001a0 54 30 03 3f b6 27 0c 3f 66 3d 0d 3f b9 dc 11 3f
       0.5124562 0.54748094 0.5517181 0.5697742
0001b0 fe a0 0c 3f 1c 45 f3 3e 9e 17 f9 3e 9e d5 f9 3e
       0.54933155 0.47513664 0.4865083 0.4879579
0001c0 be 54 fb 3e 3c b6 04 3f 17 47 01 3f 56 f9 fd 3e
       0.4908809 0.5184057 0.504991 0.4960429
0001d0 cd 9b 12 3f 16 02 f9 3e 6b 3c 07 3f 98 ef 07 3f
       0.57268983 0.48634404 0.52826566 0.53099966
0001e0 ee f6 14 3f ff 31 fa 3e 51 bd 10 3f 2c b3 fa 3e
       0.58189285 0.4886627 0.56538874 0.48964822
0001f0 97 bd 0a 3f be b9 09 3f a8 e8 f8 3e aa 7e d8 3e
       0.5419554 0.53799045 0.48615003 0.42284137
000200 fb 71 0c 3f 9c 37 0c 3f cc fc fc 3e 30 56 f8 3e
       0.5486142 0.54772353 0.4941162 0.48503256
000210 27 c6 fd 3e 5d cc 03 3f c7 9f 01 3f 07 63 ee 3e
       0.4956524 0.5148371 0.50634426 0.46559927
000220 39 70 01 3f 33 cd fb 3e 54 43 05 3f 0e 46 f8 3e
       0.50561863 0.49179992 0.5205586 0.48490947
000230 87 a1 fe 3e 08 de 06 3f 3d ed 04 3f 1e 96 f7 3e
       0.4973261 0.5268254 0.51924497 0.48356718
000240 23 07 ee 3e 79 05 11 3f b0 86 f5 3e 3b 46 f3 3e
       0.4648982 0.56648976 0.4795432 0.4751452
000250 e2 ee 08 3f 7f 89 f7 3e 98 ea 0f 3f 18 14 0f 3f
       0.53489506 0.4834709 0.56217337 0.55890036
000260 4c 9e 06 3f 39 4f ea 3e 76 ac 09 3f 77 46 fa 3e
       0.5258529 0.45763567 0.5377878 0.48881885
000270 ac 12 09 3f de 41 f5 3e 72 4b 02 3f 4b 6a fd 3e
       0.53544116 0.47901815 0.5089637 0.49495158
000280 9f 34 ef 3e fb c8 01 3f 6f b1 00 3f 74 fa e8 3e
       0.46719834 0.50697297 0.5027074 0.4550358
000290 05 de f6 3e 16 75 07 3f 0f ca f8 3e 6b 80 01 3f
       0.48216262 0.52913034 0.48591658 0.50586575
0002a0 ea 85 0d 3f f5 6f e8 3e f9 5e f3 3e f4 4d ee 3e
       0.5528246 0.45397916 0.47533396 0.4654385
0002b0 b1 7e f3 3e f6 51 08 3f 09 4a 02 3f 32 32 fe 3e
       0.47557595 0.5325006 0.5089422 0.4964767
0002c0 20 18 0a 3f be 2a 09 3f 3d 65 ec 3e 39 11 12 3f
       0.5394306 0.53580844 0.4617099 0.5705753
0002d0 e2 6d fd 3e 9a d5 fc 3e 2a ff 0b 3f 84 3d 07 3f
       0.49497896 0.49381715 0.54686224 0.5282824
0002e0 59 6c fa 3e 6d 0b fb 3e 2d 98 df 3e 71 45 fe 3e
       0.48910788 0.49032155 0.43670788 0.49662355
0002f0 50 de 13 3f ee 24 f5 3e e6 1c f1 3e ca 61 0a 3f
       0.57761097 0.47879738 0.4709236 0.54055464
000300 4c ac e1 3e 10 78 12 3f 7b df f6 3e 75 93 12 3f
       0.44076765 0.5721445 0.48217377 0.5725625
000310 90 55 fc 3e b8 f8 e3 3e b8 9e 04 3f 97 66 fa 3e
       0.4928403 0.44525695 0.51804686 0.48906395
000320 1f e7 0f 3f c8 63 10 3f 5a 63 01 3f f0 cd f8 3e
       0.5621204 0.56402254 0.50542223 0.48594618
000330 11 7f 05 3f 3d b9 03 3f 70 7f ff 3e d1 9c fa 3e
       0.5214701 0.51454526 0.49901915 0.48947766
000340 cd ff fd 3e 43 ad 0c 3f bd 97 05 3f c8 b1 f6 3e
       0.49609223 0.54951876 0.5218466 0.4818251
000350 66 65 f7 3e 43 4c e3 3e 12 5f 10 3f 24 02 fa 3e
       0.48319548 0.4439412 0.56395066 0.48829758
000360 c5 1f f7 3e 35 56 06 3f e9 34 07 3f 3c 43 fb 3e
       0.48266426 0.5247529 0.5281511 0.49074733
000370 83 4c 08 3f 86 e1 e9 3e d4 ee ee 3e 7a e9 de 3e
       0.5324175 0.45679873 0.46666586 0.43537503
000380 0a f7 fb 3e 99 66 14 3f d4 44 01 3f d9 65 0a 3f
       0.49211913 0.5796905 0.5049565 0.5406166
000390 13 1b 00 3f 34 4e 09 3f 6e 39 11 3f 14 3f fb 3e
       0.5004131 0.53634953 0.56728256 0.49071562
0003a0 fb 2c f4 3e f4 42 eb 3e c0 12 0b 3f d7 10 00 3f
       0.47690567 0.4594952 0.54325485 0.50025696
0003b0 73 f0 02 3f e4 ec 08 3f d5 20 06 3f 56 a1 06 3f
       0.51148146 0.53486466 0.5239385 0.5258993
0003c0 1b 6c 0c 3f 82 13 f2 3e 12 a6 f8 3e 47 25 df 3e
       0.54852456 0.47280508 0.48564202 0.43583128
0003d0 c0 cb 04 3f 16 64 f4 3e e6 1c 05 3f a6 ca d6 3e
       0.518734 0.4773261 0.5199722 0.41951483
0003e0 6f dc ec 3e 01 94 0f 3f a4 76 0d 3f 00 62 f3 3e
       0.46261927 0.5608521 0.55259156 0.47535706
0003f0 ae 6f 00 3f d8 14 fc 3e 90 ce 11 3f 69 74 02 3f
       0.5017041 0.49234653 0.56955814 0.5095888

batch_norms.1.running_mean f4 [256]
000000 5c 02 ae bf 41 f2 b9 bf 49 57 a9 bf 67 c3 43 bf
       -1.359447 -1.4527055 -1.3229762 -0.76470035
000010 a4 d0 9d bf e3 7f cc bf 48 c6 0d c0 91 b9 17 c0
       -1.2329297 -1.5976528 -2.2152271 -2.370701
000020 80 28 58 bf 45 ea ab bf ba 92 c0 bf 3f 1c 62 bf
       -0.844368 -1.3430868 -1.5044777 -0.8832435
000030 48 28 84 bf 7d c3 b2 bf 5e d2 82 bf fb ec f3 bf
       -1.0324793 -1.3965908 -1.0220449 -1.9056696
000040 b3 17 f8 bf 59 82 9a bf a9 ad 9c bf ea 0d 8b bf
       -1.9382232 -1.2071029 -1.2240497 -1.0863621
000050 6a 73 95 bf c5 2c 5e bf 0a cf c0 bf 23 84 8f bf
       -1.1675847 -0.8678706 -1.5063183 -1.12122
000060 28 e3 0e bf 37 b7 9b bf e3 5e c0 bf 28 2e b3 bf
       -0.5581536 -1.2165288 -1.5028957 -1.3998461
000070 7a 6a a0 bf 8a a2 e4 be bc 78 8e bf ba 8d a9 bf
       -1.2532494 -0.44655257 -1.1130595 -1.3246377
000080 39 76 b9 bf 02 fc 5f bf e9 89 c6 bf 95 e4 3b bf
       -1.4489204 -0.8749391 -1.5510837 -0.73395663
000090 56 6e bd bf e5 6d af bf 6f 55 10 c0 69 1c ca bf
       -1.4799297 -1.3705412 -2.2552145 -1.578992
0000a0 e9 db e1 bd 90 57 53 bf 9b 5d bf bf 61 c0 a4 bf
       -0.11028273 -0.82555485 -1.4950441 -1.2871209
0000b0 ae 5a 89 be 02 b9 81 bf 62 02 bf bf f2 e3 6e bf
       -0.26826996 -1.0134585 -1.4922602 -0.93316567
0000c0 d4 b0 aa bf 50 9f 0d c0 3e 26 78 bf 47 b2 b0 bf
       -1.3335214 -2.2128487 -0.9693335 -1.3804406
0000d0 ab e2 e4 bf 82 45 35 bf 48 96 7a bf 84 ff c5 bf
       -1.7881674 -0.70809186 -0.9788556 -1.5468602
0000e0 b8 a8 de bf 05 36 77 bf db 1b 20 c0 c5 15 a4 bf
       -1.7395239 -0.965668 -2.5017002 -1.2819144
0000f0 4b f7 ab bf e0 78 71 bf ef 64 91 bf 23 7e 85 bf
       -1.3434843 -0.94325066 -1.1358927 -1.0429119
000100 e0 be af bf 9d b3 96 bf 90 67 88 bf 54 3f fe bf
       -1.3730125 -1.1773564 -1.0656605 -1.9863076
000110 8a 70 89 bf ea a3 b7 bf 18 86 78 bf 88 44 97 bf
       -1.0737469 -1.4346898 -0.9707961 -1.1817789
000120 f3 54 87 bf 58 c6 ba bf e7 10 a0 bf 06 41 d7 be
       -1.05728 -1.459178 -1.2505158 -0.42041796
000130 ca ab 90 bf dc d9 02 c0 e0 e4 02 bf ac 99 9e bf
       -1.1302426 -2.044547 -0.51130486 -1.2390647
000140 59 c3 bb bf 17 f3 8a bf b6 de ac bf ee 02 90 bf
       -1.466899 -1.0855435 -1.3505466 -1.1250894
000150 91 91 66 bf 1b 2d b1 bf d1 e7 ce bf 42 9d 99 bf
       -0.90065867 -1.384189 -1.6164495 -1.2001116
000160 66 ee 43 bf 33 75 11 c0 14 dc a6 bf f3 ca c7 bf
       -0.7653564 -2.2727783 -1.3035913 -1.560881
000170 96 32 f9 bf db ad 8d bf 50 b3 87 bf c8 a1 fb bf
       -1.9468563 -1.1068681 -1.0601597 -1.9658747
000180 f2 35 17 c0 1a ca a9 bf 07 f5 b5 bf 40 1d 8e bf
       -2.3626676 -1.3264802 -1.4215401 -1.1102676
000190 26 c7 b1 bf b1 be ab bf 69 07 c1 bf 3a 25 d3 be
       -1.38889 -1.3417569 -1.5080386 -0.4123934
0001a0 32 5d 00 bf 0b b3 ab bf 6a ec 64 bf df ee a0 bf
       -0.50142205 -1.3414015 -0.8942324 -1.2572898
0001b0 e4 f7 b3 bf 8f cd 6d bf b4 60 55 bf 06 f8 86 bf
       -1.4060025 -0.9289178 -0.8335068 -1.0544441
0001c0 f0 89 7a bf e2 57 c1 bf 22 81 cb bf 16 94 b4 bf
       -0.97866726 -1.5104945 -1.5898783 -1.4107692
0001d0 0e fd 5c bf d9 ef 0b c0 1c 6f bc bf 6d d8 96 bf
       -0.8632363 -2.1865141 -1.4721408 -1.1784798
0001e0 ee 75 c6 bf e2 29 09 bf f9 bc b2 bf 0a dd 0a c0
       -1.5504739 -0.53579533 -1.396392 -2.1697412
0001f0 32 2c 0a bf 4c 55 82 bf 7f bb a3 bf 11 20 51 bf
       -0.53973687 -1.018228 -1.2791594 -0.81689554
000200 02 92 92 bf 76 1a 9a bf fa e9 9a bf e0 9a e8 bf
       -1.1450808 -1.2039325 -1.2102654 -1.8172264
000210 0a 16 2b bf cd 3b 03 c0 1d d5 bc bf c0 d5 0e c0
       -0.66830504 -2.050525 -1.4752537 -2.2317963
000220 81 fe 98 bf 89 69 3c bf 37 57 56 bf 58 4f 01 c0
       -1.1952668 -0.73598534 -0.8372683 -2.0204678
000230 6c 9a 12 c0 ef 62 e8 bf fb 0c af bf 7d 9a 0c c0
       -2.2906752 -1.8155192 -1.3675836 -2.1969292
000240 3f 09 85 bf 26 0b 8f bf 78 bf 0c c0 db 0a c3 bf
       -1.0393447 -1.1175277 -2.1991863 -1.5237688
000250 0c af 88 bf 29 3a 02 bf bb 8a 9f bf 8d ce 9a bf
       -1.067842 -0.50869995 -1.2464212 -1.2094284
000260 b7 3b 7d bf e4 b9 9f bf 66 08 93 bf 9b f5 a6 bf
       -0.9891924 -1.2478604 -1.1486938 -1.3043703
000270 16 a7 d3 bf 14 bd f1 bf e4 e6 76 bf 4a 9b 47 bf
       -1.6535366 -1.8885827 -0.9644606 -0.7797133
000280 0c d8 a7 bf 70 27 0c bf 68 6c 93 bf 65 60 34 bf
       -1.3112807 -0.54747677 -1.1517458 -0.70459586
000290 e8 a4 9f be 48 07 67 bf 1c 55 c4 bf ac e6 9e bf
       -0.311805 -0.90245485 -1.5338473 -1.2414145
0002a0 ce cc cf bf ae 26 99 bf d8 58 98 bf fd f3 b9 bf
       -1.6234376 -1.1964929 -1.1902113 -1.4527584
0002b0 c0 60 b5 bf 81 5b 8b bf 1c f4 16 c0 c7 46 b7 bf
       -1.4170151 -1.08873 -2.3586493 -1.4318475
0002c0 06 a7 76 bf 3a 0f b9 bf 73 56 4b bf 1d 51 76 bf
       -0.9634861 -1.4457772 -0.79428786 -0.9621752
0002d0 e3 60 d0 bf 89 9c 09 c0 df bc 8f bf 6c f1 86 bf
       -1.6279567 -2.1501791 -1.1229514 -1.0542426
0002e0 24 01 b4 bf 16 40 1d c0 9d fa 84 bf f5 5b 73 bf
       -1.4062848 -2.4570365 -1.0388981 -0.9506219
0002f0 3b b4 c0 bf 3d bd bb bf d8 80 07 c0 33 3e 7f bf
       -1.5055002 -1.4667126 -2.117239 -0.99704283
000300 8c a8 90 bf 76 83 ae bf b1 de 1e bf 2a c0 b7 bf
       -1.1301436 -1.3633869 -0.6205855 -1.4355519
000310 77 b0 0b c0 a4 42 96 bf c7 6a cf bf 7a 3c 19 c0
       -2.1826456 -1.1739087 -1.6204461 -2.3943162
000320 d9 c1 94 bf 4a 84 af bf c6 f6 63 bf a8 bd 9b bf
       -1.1621658 -1.3712246 -0.8904842 -1.2167253
000330 a2 a9 b2 bf 0f a9 ae bf 27 50 06 c0 f7 7d d2 bf
       -1.3958018 -1.3645343 -2.098642 -1.6444691
000340 80 6b ae bf d6 71 4a bf 1f 5f 41 bf 7f 46 c5 bf
       -1.3626556 -0.7907995 -0.7553577 -1.5412139
000350 c4 6e e1 bf 46 c0 4d bf bb 71 c9 bf ea 1c 70 bf
       -1.7611928 -0.8037151 -1.5737833 -0.9379412
000360 59 0b 40 bf 8e 99 60 bf ac f2 58 bf 04 33 0a c0
       -0.75017315 -0.87734306 -0.8474529 -2.1593637
000370 a4 af 8c bf 94 19 11 c0 2f 01 f0 bf 2e 2a 41 bf
       -1.0991101 -2.2671862 -1.8750361 -0.75454986
000380 d9 43 0e c0 85 99 c2 bf 96 4d b3 bf 74 f0 b8 bf
       -2.222891 -1.52031 -1.4008052 -1.444838
000390 4e e6 98 bf 35 26 55 bf aa 04 87 bf 50 81 ce bf
       -1.1945283 -0.83261424 -1.0548298 -1.6133213
0003a0 43 a3 f5 bf 1e 2b 06 c0 ce 36 9e bf 98 e8 1b bf
       -1.9190449 -2.0963817 -1.2360475 -0.60901785
0003b0 54 c1 b8 bf 5b da 78 bf 52 09 c1 bf c9 4f 72 bf
       -1.4433999 -0.97208184 -1.5080969 -0.9465299
0003c0 ab ce d0 bf f6 b1 a0 bf e7 db 52 bf 5c c7 43 bf
       -1.631307 -1.2554309 -0.82366794 -0.76476073
0003d0 b8 d0 94 bf cf 4b 02 c0 47 7e 81 bf 9e 80 8c bf
       -1.1626196 -2.035877 -1.0116662 -1.0976751
0003e0 6e 5e aa bf b5 26 92 bf f4 fb 61 bf ad 32 aa bf
       -1.3310068 -1.1418062 -0.88275075 -1.3296715
0003f0 a7 41 17 bf b0 6d c7 bf 0b 6a d8 bf c1 ff 92 bf
       -0.5908455 -1.5580349 -1.6907362 -1.14843
